…
1.2.1.2 Introduction to the problem you’re trying to solve (2.5%)
A: 辨識元智選課系統的驗證碼


1.2.2 Methodology
1.2.2.1 Input of your model (0.5%)
A: （放一張驗證碼的圖）shape為 (20, 60, 3) 準確來說應該是 (?, 20, 60, 3)
1.2.2.2 Output of your model (0.5%)
A: 長度為4的list, 每個元素是 (1, 36)(不確定) 的矩陣 這36個之中分數最高的代表驗證碼中一個字的答案
1.2.2.3 Each layer of your model (0.5%)
A:
__________________________________________________________________________________________________
Layer (type)                    Output Shape         Param #     Connected to                     
==================================================================================================
input_1 (InputLayer)            (None, 20, 60, 3)    0                                            
__________________________________________________________________________________________________
conv2d_1 (Conv2D)               (None, 20, 60, 32)   896         input_1[0][0]                    
__________________________________________________________________________________________________
conv2d_2 (Conv2D)               (None, 18, 58, 32)   9248        conv2d_1[0][0]                   
__________________________________________________________________________________________________
batch_normalization_1 (BatchNor (None, 18, 58, 32)   128         conv2d_2[0][0]                   
__________________________________________________________________________________________________
max_pooling2d_1 (MaxPooling2D)  (None, 9, 29, 32)    0           batch_normalization_1[0][0]      
__________________________________________________________________________________________________
dropout_1 (Dropout)             (None, 9, 29, 32)    0           max_pooling2d_1[0][0]            
__________________________________________________________________________________________________
conv2d_3 (Conv2D)               (None, 9, 29, 64)    18496       dropout_1[0][0]                  
__________________________________________________________________________________________________
conv2d_4 (Conv2D)               (None, 7, 27, 64)    36928       conv2d_3[0][0]                   
__________________________________________________________________________________________________
batch_normalization_2 (BatchNor (None, 7, 27, 64)    256         conv2d_4[0][0]                   
__________________________________________________________________________________________________
max_pooling2d_2 (MaxPooling2D)  (None, 3, 13, 64)    0           batch_normalization_2[0][0]      
__________________________________________________________________________________________________
dropout_2 (Dropout)             (None, 3, 13, 64)    0           max_pooling2d_2[0][0]            
__________________________________________________________________________________________________
conv2d_5 (Conv2D)               (None, 3, 13, 128)   73856       dropout_2[0][0]                  
__________________________________________________________________________________________________
conv2d_6 (Conv2D)               (None, 1, 11, 128)   147584      conv2d_5[0][0]                   
__________________________________________________________________________________________________
batch_normalization_3 (BatchNor (None, 1, 11, 128)   512         conv2d_6[0][0]                   
__________________________________________________________________________________________________
dropout_3 (Dropout)             (None, 1, 11, 128)   0           batch_normalization_3[0][0]      
__________________________________________________________________________________________________
flatten_1 (Flatten)             (None, 1408)         0           dropout_3[0][0]                  
__________________________________________________________________________________________________
digit1 (Dense)                  (None, 36)           50724       flatten_1[0][0]                  
__________________________________________________________________________________________________
digit2 (Dense)                  (None, 36)           50724       flatten_1[0][0]                  
__________________________________________________________________________________________________
digit3 (Dense)                  (None, 36)           50724       flatten_1[0][0]                  
__________________________________________________________________________________________________
digit4 (Dense)                  (None, 36)           50724       flatten_1[0][0]                  
==================================================================================================
Total params: 490,800
Trainable params: 490,352
Non-trainable params: 448
__________________________________________________________________________________________________



1.2.2.4 How you save your model? (0.5%)
A: keras內建函數 model.save
1.2.2.5 File size of your model (0.5%)
…
